2020-10-28 21:09:50,202 - orignal model size (MB): 0.828236
2020-10-28 21:09:50,204 - # non-zero params before decomp: 185762
2020-10-28 21:09:55,548 - apply [cp] DECOMP with rank: 4
2020-10-28 21:09:55,555 - decomp-ed model size (MB): 0.166182
2020-10-28 21:09:55,556 - # non-zero params after decomp: 13526
2020-10-28 21:09:55,561 - ===> loading train and dev dataset
2020-10-28 21:09:55,565 - ### Model summary below###
 AttenResNet4(
  (pre): Sequential(
    (0): Sequential(
      (0): Conv2d(1, 4, kernel_size=(1, 1), stride=(1, 1), bias=False)
      (1): Conv2d(4, 4, kernel_size=(3, 3), stride=(1, 1), padding=(1, 1), groups=4, bias=False)
      (2): Conv2d(4, 16, kernel_size=(1, 1), stride=(1, 1))
    )
    (1): BatchNorm2d(16, eps=1e-05, momentum=0.1, affine=True, track_running_stats=True)
    (2): ReLU(inplace=True)
    (3): Sequential(
      (0): Conv2d(16, 4, kernel_size=(1, 1), stride=(1, 1), bias=False)
      (1): Conv2d(4, 4, kernel_size=(3, 3), stride=(1, 1), padding=(1, 1), groups=4, bias=False)
      (2): Conv2d(4, 16, kernel_size=(1, 1), stride=(1, 1))
    )
    (4): BatchNorm2d(16, eps=1e-05, momentum=0.1, affine=True, track_running_stats=True)
    (5): ReLU(inplace=True)
  )
  (down1): MaxPool2d(kernel_size=3, stride=(1, 1), padding=0, dilation=1, ceil_mode=False)
  (att1): Sequential(
    (0): Sequential(
      (0): Conv2d(16, 4, kernel_size=(1, 1), stride=(1, 1), bias=False)
      (1): Conv2d(4, 4, kernel_size=(3, 3), stride=(1, 1), padding=(1, 1), dilation=(4, 8), groups=4, bias=False)
      (2): Conv2d(4, 16, kernel_size=(1, 1), stride=(1, 1))
    )
    (1): BatchNorm2d(16, eps=1e-05, momentum=0.1, affine=True, track_running_stats=True)
    (2): ReLU(inplace=True)
  )
  (skip1): Sequential(
    (0): Sequential(
      (0): Conv2d(16, 4, kernel_size=(1, 1), stride=(1, 1), bias=False)
      (1): Conv2d(4, 4, kernel_size=(3, 3), stride=(1, 1), padding=(1, 1), groups=4, bias=False)
      (2): Conv2d(4, 16, kernel_size=(1, 1), stride=(1, 1))
    )
    (1): BatchNorm2d(16, eps=1e-05, momentum=0.1, affine=True, track_running_stats=True)
    (2): ReLU(inplace=True)
  )
  (down2): MaxPool2d(kernel_size=3, stride=(1, 1), padding=0, dilation=1, ceil_mode=False)
  (att2): Sequential(
    (0): Sequential(
      (0): Conv2d(16, 4, kernel_size=(1, 1), stride=(1, 1), bias=False)
      (1): Conv2d(4, 4, kernel_size=(3, 3), stride=(1, 1), padding=(1, 1), dilation=(8, 16), groups=4, bias=False)
      (2): Conv2d(4, 16, kernel_size=(1, 1), stride=(1, 1))
    )
    (1): BatchNorm2d(16, eps=1e-05, momentum=0.1, affine=True, track_running_stats=True)
    (2): ReLU(inplace=True)
  )
  (skip2): Sequential(
    (0): Sequential(
      (0): Conv2d(16, 4, kernel_size=(1, 1), stride=(1, 1), bias=False)
      (1): Conv2d(4, 4, kernel_size=(3, 3), stride=(1, 1), padding=(1, 1), groups=4, bias=False)
      (2): Conv2d(4, 16, kernel_size=(1, 1), stride=(1, 1))
    )
    (1): BatchNorm2d(16, eps=1e-05, momentum=0.1, affine=True, track_running_stats=True)
    (2): ReLU(inplace=True)
  )
  (down3): MaxPool2d(kernel_size=3, stride=(1, 1), padding=0, dilation=1, ceil_mode=False)
  (att3): Sequential(
    (0): Sequential(
      (0): Conv2d(16, 4, kernel_size=(1, 1), stride=(1, 1), bias=False)
      (1): Conv2d(4, 4, kernel_size=(3, 3), stride=(1, 1), padding=(1, 1), dilation=(16, 32), groups=4, bias=False)
      (2): Conv2d(4, 16, kernel_size=(1, 1), stride=(1, 1))
    )
    (1): BatchNorm2d(16, eps=1e-05, momentum=0.1, affine=True, track_running_stats=True)
    (2): ReLU(inplace=True)
  )
  (skip3): Sequential(
    (0): Sequential(
      (0): Conv2d(16, 4, kernel_size=(1, 1), stride=(1, 1), bias=False)
      (1): Conv2d(4, 4, kernel_size=(3, 3), stride=(1, 1), padding=(1, 1), groups=4, bias=False)
      (2): Conv2d(4, 16, kernel_size=(1, 1), stride=(1, 1))
    )
    (1): BatchNorm2d(16, eps=1e-05, momentum=0.1, affine=True, track_running_stats=True)
    (2): ReLU(inplace=True)
  )
  (down4): MaxPool2d(kernel_size=3, stride=(1, 1), padding=0, dilation=1, ceil_mode=False)
  (att4): Sequential(
    (0): Sequential(
      (0): Conv2d(16, 4, kernel_size=(1, 1), stride=(1, 1), bias=False)
      (1): Conv2d(4, 4, kernel_size=(3, 3), stride=(1, 1), padding=(1, 1), dilation=(32, 64), groups=4, bias=False)
      (2): Conv2d(4, 16, kernel_size=(1, 1), stride=(1, 1))
    )
    (1): BatchNorm2d(16, eps=1e-05, momentum=0.1, affine=True, track_running_stats=True)
    (2): ReLU(inplace=True)
  )
  (skip4): Sequential(
    (0): Sequential(
      (0): Conv2d(16, 4, kernel_size=(1, 1), stride=(1, 1), bias=False)
      (1): Conv2d(4, 4, kernel_size=(3, 3), stride=(1, 1), padding=(1, 1), groups=4, bias=False)
      (2): Conv2d(4, 16, kernel_size=(1, 1), stride=(1, 1))
    )
    (1): BatchNorm2d(16, eps=1e-05, momentum=0.1, affine=True, track_running_stats=True)
    (2): ReLU(inplace=True)
  )
  (down5): MaxPool2d(kernel_size=3, stride=(1, 2), padding=0, dilation=1, ceil_mode=False)
  (att5): Sequential(
    (0): Sequential(
      (0): Conv2d(16, 4, kernel_size=(1, 1), stride=(1, 1), bias=False)
      (1): Conv2d(4, 4, kernel_size=(3, 3), stride=(1, 1), padding=(1, 1), dilation=(64, 128), groups=4, bias=False)
      (2): Conv2d(4, 16, kernel_size=(1, 1), stride=(1, 1))
    )
    (1): BatchNorm2d(16, eps=1e-05, momentum=0.1, affine=True, track_running_stats=True)
    (2): ReLU(inplace=True)
    (3): Sequential(
      (0): Conv2d(16, 4, kernel_size=(1, 1), stride=(1, 1), bias=False)
      (1): Conv2d(4, 4, kernel_size=(3, 3), stride=(1, 1), padding=(1, 1), groups=4, bias=False)
      (2): Conv2d(4, 16, kernel_size=(1, 1), stride=(1, 1))
    )
    (4): BatchNorm2d(16, eps=1e-05, momentum=0.1, affine=True, track_running_stats=True)
    (5): ReLU(inplace=True)
  )
  (up5): UpsamplingBilinear2d(size=(137, 851), mode=bilinear)
  (att6): Sequential(
    (0): Sequential(
      (0): Conv2d(16, 4, kernel_size=(1, 1), stride=(1, 1), bias=False)
      (1): Conv2d(4, 4, kernel_size=(3, 3), stride=(1, 1), padding=(1, 1), groups=4, bias=False)
      (2): Conv2d(4, 16, kernel_size=(1, 1), stride=(1, 1))
    )
    (1): BatchNorm2d(16, eps=1e-05, momentum=0.1, affine=True, track_running_stats=True)
    (2): ReLU(inplace=True)
  )
  (up4): UpsamplingBilinear2d(size=(201, 979), mode=bilinear)
  (att7): Sequential(
    (0): Sequential(
      (0): Conv2d(16, 4, kernel_size=(1, 1), stride=(1, 1), bias=False)
      (1): Conv2d(4, 4, kernel_size=(3, 3), stride=(1, 1), padding=(1, 1), groups=4, bias=False)
      (2): Conv2d(4, 16, kernel_size=(1, 1), stride=(1, 1))
    )
    (1): BatchNorm2d(16, eps=1e-05, momentum=0.1, affine=True, track_running_stats=True)
    (2): ReLU(inplace=True)
  )
  (up3): UpsamplingBilinear2d(size=(233, 1043), mode=bilinear)
  (att8): Sequential(
    (0): Sequential(
      (0): Conv2d(16, 4, kernel_size=(1, 1), stride=(1, 1), bias=False)
      (1): Conv2d(4, 4, kernel_size=(3, 3), stride=(1, 1), padding=(1, 1), groups=4, bias=False)
      (2): Conv2d(4, 16, kernel_size=(1, 1), stride=(1, 1))
    )
    (1): BatchNorm2d(16, eps=1e-05, momentum=0.1, affine=True, track_running_stats=True)
    (2): ReLU(inplace=True)
  )
  (up2): UpsamplingBilinear2d(size=(249, 1075), mode=bilinear)
  (att9): Sequential(
    (0): Sequential(
      (0): Conv2d(16, 4, kernel_size=(1, 1), stride=(1, 1), bias=False)
      (1): Conv2d(4, 4, kernel_size=(3, 3), stride=(1, 1), padding=(1, 1), groups=4, bias=False)
      (2): Conv2d(4, 16, kernel_size=(1, 1), stride=(1, 1))
    )
    (1): BatchNorm2d(16, eps=1e-05, momentum=0.1, affine=True, track_running_stats=True)
    (2): ReLU(inplace=True)
  )
  (up1): UpsamplingBilinear2d(size=(257, 1091), mode=bilinear)
  (conv1): Sequential(
    (0): BatchNorm2d(16, eps=1e-05, momentum=0.1, affine=True, track_running_stats=True)
    (1): ReLU(inplace=True)
    (2): Sequential(
      (0): Conv2d(16, 4, kernel_size=(1, 1), stride=(1, 1), bias=False)
      (1): Conv2d(4, 4, kernel_size=(1, 1), stride=(1, 1), groups=4, bias=False)
      (2): Conv2d(4, 4, kernel_size=(1, 1), stride=(1, 1))
    )
    (3): BatchNorm2d(4, eps=1e-05, momentum=0.1, affine=True, track_running_stats=True)
    (4): ReLU(inplace=True)
    (5): Sequential(
      (0): Conv2d(4, 4, kernel_size=(1, 1), stride=(1, 1), bias=False)
      (1): Conv2d(4, 4, kernel_size=(1, 1), stride=(1, 1), groups=4, bias=False)
      (2): Conv2d(4, 1, kernel_size=(1, 1), stride=(1, 1))
    )
  )
  (soft): Sigmoid()
  (cnn1): Sequential(
    (0): Conv2d(1, 4, kernel_size=(1, 1), stride=(1, 1), bias=False)
    (1): Conv2d(4, 4, kernel_size=(3, 3), stride=(1, 1), padding=(1, 1), groups=4, bias=False)
    (2): Conv2d(4, 16, kernel_size=(1, 1), stride=(1, 1))
  )
  (bn1): BatchNorm2d(16, eps=1e-05, momentum=0.1, affine=True, track_running_stats=True)
  (re1): ReLU(inplace=True)
  (cnn2): Sequential(
    (0): Conv2d(16, 4, kernel_size=(1, 1), stride=(1, 1), bias=False)
    (1): Conv2d(4, 4, kernel_size=(3, 3), stride=(1, 1), padding=(1, 1), groups=4, bias=False)
    (2): Conv2d(4, 16, kernel_size=(1, 1), stride=(1, 1))
  )
  (bn2): BatchNorm2d(16, eps=1e-05, momentum=0.1, affine=True, track_running_stats=True)
  (re2): ReLU(inplace=True)
  (cnn3): Sequential(
    (0): Conv2d(16, 4, kernel_size=(1, 1), stride=(1, 1), bias=False)
    (1): Conv2d(4, 4, kernel_size=(3, 3), stride=(1, 1), padding=(1, 1), groups=4, bias=False)
    (2): Conv2d(4, 16, kernel_size=(1, 1), stride=(1, 1))
  )
  (mp1): MaxPool2d(kernel_size=(1, 2), stride=(1, 2), padding=0, dilation=1, ceil_mode=False)
  (cnn4): Sequential(
    (0): Conv2d(16, 4, kernel_size=(1, 1), stride=(1, 1), bias=False)
    (1): Conv2d(4, 4, kernel_size=(3, 3), stride=(1, 1), dilation=(2, 2), groups=4, bias=False)
    (2): Conv2d(4, 32, kernel_size=(1, 1), stride=(1, 1))
  )
  (bn3): BatchNorm2d(32, eps=1e-05, momentum=0.1, affine=True, track_running_stats=True)
  (re3): ReLU(inplace=True)
  (cnn5): Sequential(
    (0): Conv2d(32, 4, kernel_size=(1, 1), stride=(1, 1), bias=False)
    (1): Conv2d(4, 4, kernel_size=(3, 3), stride=(1, 1), padding=(1, 1), groups=4, bias=False)
    (2): Conv2d(4, 32, kernel_size=(1, 1), stride=(1, 1))
  )
  (bn4): BatchNorm2d(32, eps=1e-05, momentum=0.1, affine=True, track_running_stats=True)
  (re4): ReLU(inplace=True)
  (cnn6): Sequential(
    (0): Conv2d(32, 4, kernel_size=(1, 1), stride=(1, 1), bias=False)
    (1): Conv2d(4, 4, kernel_size=(3, 3), stride=(1, 1), padding=(1, 1), groups=4, bias=False)
    (2): Conv2d(4, 32, kernel_size=(1, 1), stride=(1, 1))
  )
  (mp2): MaxPool2d(kernel_size=(1, 2), stride=(1, 2), padding=0, dilation=1, ceil_mode=False)
  (cnn7): Sequential(
    (0): Conv2d(32, 4, kernel_size=(1, 1), stride=(1, 1), bias=False)
    (1): Conv2d(4, 4, kernel_size=(3, 3), stride=(1, 1), dilation=(4, 4), groups=4, bias=False)
    (2): Conv2d(4, 32, kernel_size=(1, 1), stride=(1, 1))
  )
  (bn5): BatchNorm2d(32, eps=1e-05, momentum=0.1, affine=True, track_running_stats=True)
  (re5): ReLU(inplace=True)
  (cnn8): Sequential(
    (0): Conv2d(32, 4, kernel_size=(1, 1), stride=(1, 1), bias=False)
    (1): Conv2d(4, 4, kernel_size=(3, 3), stride=(1, 1), padding=(1, 1), groups=4, bias=False)
    (2): Conv2d(4, 32, kernel_size=(1, 1), stride=(1, 1))
  )
  (bn6): BatchNorm2d(32, eps=1e-05, momentum=0.1, affine=True, track_running_stats=True)
  (re6): ReLU(inplace=True)
  (cnn9): Sequential(
    (0): Conv2d(32, 4, kernel_size=(1, 1), stride=(1, 1), bias=False)
    (1): Conv2d(4, 4, kernel_size=(3, 3), stride=(1, 1), padding=(1, 1), groups=4, bias=False)
    (2): Conv2d(4, 32, kernel_size=(1, 1), stride=(1, 1))
  )
  (mp3): MaxPool2d(kernel_size=(2, 2), stride=(2, 2), padding=0, dilation=1, ceil_mode=False)
  (cnn10): Sequential(
    (0): Conv2d(32, 4, kernel_size=(1, 1), stride=(1, 1), bias=False)
    (1): Conv2d(4, 4, kernel_size=(3, 3), stride=(1, 1), dilation=(4, 4), groups=4, bias=False)
    (2): Conv2d(4, 32, kernel_size=(1, 1), stride=(1, 1))
  )
  (bn12): BatchNorm2d(32, eps=1e-05, momentum=0.1, affine=True, track_running_stats=True)
  (re12): ReLU(inplace=True)
  (cnn11): Sequential(
    (0): Conv2d(32, 4, kernel_size=(1, 1), stride=(1, 1), bias=False)
    (1): Conv2d(4, 4, kernel_size=(3, 3), stride=(1, 1), padding=(1, 1), groups=4, bias=False)
    (2): Conv2d(4, 32, kernel_size=(1, 1), stride=(1, 1))
  )
  (bn13): BatchNorm2d(32, eps=1e-05, momentum=0.1, affine=True, track_running_stats=True)
  (re13): ReLU(inplace=True)
  (cnn12): Sequential(
    (0): Conv2d(32, 4, kernel_size=(1, 1), stride=(1, 1), bias=False)
    (1): Conv2d(4, 4, kernel_size=(3, 3), stride=(1, 1), padding=(1, 1), groups=4, bias=False)
    (2): Conv2d(4, 32, kernel_size=(1, 1), stride=(1, 1))
  )
  (mp4): MaxPool2d(kernel_size=(2, 2), stride=(2, 2), padding=0, dilation=1, ceil_mode=False)
  (cnn13): Sequential(
    (0): Conv2d(32, 4, kernel_size=(1, 1), stride=(1, 1), bias=False)
    (1): Conv2d(4, 4, kernel_size=(3, 3), stride=(1, 1), dilation=(8, 8), groups=4, bias=False)
    (2): Conv2d(4, 32, kernel_size=(1, 1), stride=(1, 1))
  )
  (bn14): BatchNorm2d(32, eps=1e-05, momentum=0.1, affine=True, track_running_stats=True)
  (re14): ReLU(inplace=True)
  (cnn14): Sequential(
    (0): Conv2d(32, 4, kernel_size=(1, 1), stride=(1, 1), bias=False)
    (1): Conv2d(4, 4, kernel_size=(3, 3), stride=(1, 1), padding=(1, 1), groups=4, bias=False)
    (2): Conv2d(4, 32, kernel_size=(1, 1), stride=(1, 1))
  )
  (bn15): BatchNorm2d(32, eps=1e-05, momentum=0.1, affine=True, track_running_stats=True)
  (re15): ReLU(inplace=True)
  (cnn15): Sequential(
    (0): Conv2d(32, 4, kernel_size=(1, 1), stride=(1, 1), bias=False)
    (1): Conv2d(4, 4, kernel_size=(3, 3), stride=(1, 1), padding=(1, 1), groups=4, bias=False)
    (2): Conv2d(4, 32, kernel_size=(1, 1), stride=(1, 1))
  )
  (mp5): MaxPool2d(kernel_size=(2, 2), stride=(2, 2), padding=0, dilation=1, ceil_mode=False)
  (cnn16): Sequential(
    (0): Conv2d(32, 4, kernel_size=(1, 1), stride=(1, 1), bias=False)
    (1): Conv2d(4, 4, kernel_size=(3, 3), stride=(1, 1), dilation=(8, 8), groups=4, bias=False)
    (2): Conv2d(4, 32, kernel_size=(1, 1), stride=(1, 1))
  )
  (ln1): Sequential(
    (0): Linear(in_features=768, out_features=4, bias=False)
    (1): Linear(in_features=4, out_features=32, bias=True)
  )
  (bn7): BatchNorm1d(32, eps=1e-05, momentum=0.1, affine=True, track_running_stats=True)
  (re7): ReLU(inplace=True)
  (ln2): Sequential(
    (0): Linear(in_features=32, out_features=4, bias=False)
    (1): Linear(in_features=4, out_features=32, bias=True)
  )
  (bn8): BatchNorm1d(32, eps=1e-05, momentum=0.1, affine=True, track_running_stats=True)
  (re8): ReLU(inplace=True)
  (ln3): Sequential(
    (0): Linear(in_features=32, out_features=4, bias=False)
    (1): Linear(in_features=4, out_features=32, bias=True)
  )
  (bn9): BatchNorm1d(32, eps=1e-05, momentum=0.1, affine=True, track_running_stats=True)
  (re9): ReLU(inplace=True)
  (ln4): Sequential(
    (0): Linear(in_features=32, out_features=4, bias=False)
    (1): Linear(in_features=4, out_features=32, bias=True)
  )
  (bn10): BatchNorm1d(32, eps=1e-05, momentum=0.1, affine=True, track_running_stats=True)
  (re10): ReLU(inplace=True)
  (ln5): Sequential(
    (0): Linear(in_features=32, out_features=4, bias=False)
    (1): Linear(in_features=4, out_features=32, bias=True)
  )
  (bn11): BatchNorm1d(32, eps=1e-05, momentum=0.1, affine=True, track_running_stats=True)
  (re11): ReLU(inplace=True)
  (ln6): Sequential(
    (0): Linear(in_features=32, out_features=4, bias=False)
    (1): Linear(in_features=4, out_features=1, bias=True)
  )
  (sigmoid): Sigmoid()
)

2020-10-28 21:09:55,566 - ===> Model total parameter: 13526

2020-10-28 21:09:56,081 - Train Epoch: 1 [0/3014 (0%)]	Loss: 0.110268
2020-10-28 21:10:09,381 - Train Epoch: 1 [200/3014 (7%)]	Loss: 0.430873
2020-10-28 21:10:22,687 - Train Epoch: 1 [400/3014 (13%)]	Loss: 0.172104
2020-10-28 21:10:35,994 - Train Epoch: 1 [600/3014 (20%)]	Loss: 0.110158
…
